…
layer = Dense(256,name='FC1')(layer)
layer = Activation('relu')(layer)
layer = Dropout(0.5)(layer)
layer = Dense(1,name='out_layer')(layer)
layer = Activation('sigmoid')(layer)
model = Model(inputs=inputs,outputs=layer)
model.summary()
Model: "model_1"
_________________________________________________________________
 Layer (type)                Output Shape              Param #   
=================================================================
 inputs (InputLayer)         [(None, 150)]             0         
                                                                 
 embedding_1 (Embedding)     (None, 150, 50)           50000     
                                                                 
 lstm_1 (LSTM)               (None, 64)                29440     
                                                                 
 FC1 (Dense)                 (None, 256)               16640     
                                                                 
 activation_2 (Activation)   (None, 256)               0         
                                                                 
 dropout_1 (Dropout)         (None, 256)               0         
                                                                 
 out_layer (Dense)           (None, 1)                 257       
                                                                 
 activation_3 (Activation)   (None, 1)                 0         
                                                                 
=================================================================
Total params: 96,337
Trainable params: 96,337
Non-trainable params: 0
_________________________________________________________________
Compiling The Model:

In [ ]:
model.compile(loss='binary_crossentropy',optimizer=RMSprop(),metrics=['accuracy'])
Fit The Model:
…
